model/data.pth (torch, 6314 bytes, 6 tensors)

l1.weight f4 [8, 71]
-0.19962335 0.4148423 0.011682418 0.013358366 -0.41939288 0.34751287 -0.28647035 0.5193353
0.13921723 0.2789685 0.35331604 0.6057202 0.018724868 -0.14536402 -0.23513941 0.1982656
0.6037224 -0.19801965 0.28935543 0.27307305 0.35610783 -0.19571619 0.26762366 0.6215826
0.27813363 0.22474588 -0.45074922 0.09470938 0.12259179 0.28478196 -0.24563253 0.38081786
0.40782925 0.6296993 -0.12773217 0.6387008 -0.14844789 0.27665895 0.31671533 -0.3072301
-0.20570152 0.47112238 0.12256467 0.14185645 -0.32484773 -0.22624002 -0.25321144 -0.32094753
0.26934114 0.7770096 0.31119993 0.3701477 0.2123801 0.141493 0.35526842 0.4192898
-0.67433643 0.040459752 0.5141584 0.10699739 -0.0656011 -0.25381964 -0.088151485 -0.3634469
0.44699582 0.31790772 0.4939487 -0.027060533 0.19635461 0.17795956 0.26785704 0.20398441
0.5226174 0.7673635 0.48160696 0.4096066 0.38869408 -0.06302245 0.24095693 -0.08871404
-0.3529824 -0.2463056 -0.43557942 0.26058426 0.52663183 0.32272363 -0.16948494 -0.21073936
0.37703627 -0.054616272 0.42147666 0.43816587 0.22045799 -0.12315204 -0.43558708 0.044882383
-0.338381 0.3103666 -0.36446917 -0.2696108 0.14651017 0.7262049 -0.06926442 0.5746464
-0.44271544 0.12385988 -0.2558873 0.5135528 -0.025273649 -0.16478106 0.28687245 0.45088854
0.2023807 0.32181787 0.34499392 0.5050857 0.32689273 0.42717156 -0.008157709 -0.028239511
-0.14256614 0.057506092 -0.41125044 0.03779519 -0.18146943 -0.052949667 -0.22964396 1.1351941
0.93353623 -0.28391284 -0.06313954 0.009704847 0.43483773 0.3097289 0.27070773 -0.009599628
-0.31855273 -0.17269272 0.2150294 0.47300738 -0.033409555 0.023483533 0.49804553 -0.3270837
-0.15343934 0.06338051 0.0869255 0.33274338 0.5590152 0.5398998 0.43989113 0.5297117
0.054006867 -0.4735228 0.19125016 0.2222974 0.036910996 0.39840296 -0.17026491 0.34093043
0.1477147 -0.07794514 -0.29940796 0.37536812 0.49066588 -0.5825164 -0.036332194 0.7039041
-0.37989998 0.51411057 0.6691674 0.32503 0.30950037 0.23618923 0.45697263 -0.38980243
0.3783787 -0.2510495 -0.06339509 -0.07393499 -0.4990815 -0.08693221 -0.00963952 0.005142969
-0.28482422 0.1320177 0.14308125 -0.001110392 0.1929774 0.348047 0.4050615 0.84198624
0.43124217 -0.5021196 -0.04772179 0.22550924 0.19391474 -0.35996056 -0.72762585 -0.17269471
-0.50702363 0.5299214 0.39406824 0.10398998 -0.04099315 0.55099595 0.37449414 -0.020795757
-0.113823526 0.26257667 0.00028457044 0.30407473 0.46093833 0.32730952 -0.5231172 -0.38435936
0.19688019 0.13802052 -0.2996566 0.5661874 -0.45369986 0.5357796 0.66962355 -0.28498894
0.50291556 0.35928008 0.1954324 0.2189174 0.48629242 -0.46632928 0.02439585 0.008424512
-0.41858217 -0.3464435 0.44706306 0.5361379 0.56149715 0.5419837 0.6619669 0.6135594
0.72557783 0.67799884 0.15345362 0.16931106 -0.01699456 -0.3012527 0.43314612 0.4024573
-0.61865175 -0.06860077 -0.04128777 -0.21614255 0.028419672 -0.12813225 -0.42172536 0.20553249
00000000: 106a 4cbe 3666 d43e 9d67 3f3c 0cdd 5a3c
00000010: aaba d6be 35ed b13e 3eac 92be 29f3 043f
00000020: f68e 0e3e f6d4 8e3e d7e5 b43e 7b10 1b3f
00000030: e564 993c 4eda 14be 63c8 70be 2306 4b3e
00000040: 8d8d 1a3f aac5 4abe 6526 943e 3bd0 8b3e
00000050: c453 b63e d369 48be f805 893e 0a20 1f3f
00000060: 8867 8e3e c923 663e 9ac8 e6be fef6 c13d
00000070: 6811 fb3d f1ce 913e 1887 7bbe 8ffa c23e
00000080: ffce d03e f933 213f 39cc 02be e581 233f
00000090: b902 18be 3ea6 8d3e 8328 a23e 434d 9dbe
000000a0: 6ba3 52be f436 f13e 3003 fb3d d142 113e
000000b0: 7152 a6be 77ab 67be eea4 81be 3c53 a4be
000000c0: 15e7 893e 1aea 463f 9955 9f3e 0084 bd3e
000000d0: 2b7a 593e 8ae3 103e bee5 b53e 27ad d63e
000000e0: 50a1 2cbf 20b9 253d e39f 033f 7321 db3d
000000f0: df59 86bd a6f4 81be c488 b4bd b615 babe
00000100: a3dc e43e cdc4 a23e d8e6 fc3e 0dae ddbc
00000110: 2f11 493e 083b 363e 8f24 893e 4ae1 503e
00000120: 41ca 053f ef71 443f 3095 f63e f5b7 d13e
00000130: e902 c73e ea11 81bd 6abd 763e b5af b5bd
00000140: 1cba b4be 8937 7cbe 4404 dfbe 4d6b 853e
00000150: 58d1 063f 083c a53e 768d 2dbe 0fcc 57be
00000160: e60a c13e 50b5 5fbd cacb d73e 4757 e03e
00000170: bdbf 613e 2337 fcbd 4505 dfbe 97d6 373d
00000180: 4640 adbe 5fe8 9e3e b49b babe 6d0a 8abe
00000190: c306 163e 90e8 393f 81da 8dbd 071c 133f
000001a0: 99ab e2be 40aa fd3d a903 83be 3278 033f
000001b0: af0a cfbc 5ebc 28be f2e0 923e ddda e63e
000001c0: e33c 4f3e 50c5 a43e 0ba3 b03e 4c4d 013f
000001d0: 7c5e a73e 3bb6 da3e e9a7 05bc 8c56 e7bc
000001e0: dcfc 11be 828b 6b3d 6b8f d2be 21cf 1a3d
000001f0: 1fd3 39be c0e1 58bd c927 6bbe 0a4e 913f
00000200: 3bfc 6e3f 065d 91be 4e4f 81bd 1401 1f3c
00000210: 0da3 de3e c994 9e3e 349a 8a3e c247 1dbc
00000220: 5819 a3be 5cd6 30be ab30 5c3e 062e f23e
00000230: 75d8 08bd 8a60 c03c d3ff fe3e 8477 a7be
00000240: 341f 1dbe a4cd 813d ff05 b23d 575d aa3e
00000250: 9f1b 0f3f e036 0a3f 6939 e13e 309b 073f
00000260: 4e36 5d3d 9571 f2be 15d7 433e eea1 633e
00000270: fc2f 173d 79fb cb3e ed59 2ebe 6f8e ae3e
00000280: 8642 173e b4a1 9fbd 004c 99be 4030 c03e
00000290: 8f38 fb3e cb1f 15bf 11d1 14bd 0f33 343f
000002a0: 4082 c2be c09c 033f 8e4e 2b3f 556a a63e
000002b0: d576 9e3e 97db 713e 51f8 e93e 2f94 c7be
000002c0: daba c13e 8f89 80be 49d5 81bd 3a6b 97bd
000002d0: 9c87 ffbe 8409 b2bd 14ef 1dbc 5a86 a83b
000002e0: 7bd4 91be a62f 073e e483 123e 938a 91ba
000002f0: de9b 453e 3733 b23e 3964 cf3e 698c 573f
00000300: c6cb dc3e e98a 00bf ec77 43bd e5eb 663e
00000310: 9691 463e c04c b8be b045 3abf e2d6 30be
00000320: 4dcc 01bf eea8 073f 50c3 c93e b3f8 d43d
00000330: 6fe8 27bd 120e 0d3f b2bd bf3e dd5b aabc
00000340: 4f1c e9bd 7370 863e 6632 9539 afaf 9b3e
00000350: 1c00 ec3e 1d95 a73e 02eb 05bf c0ca c4be
00000360: f69a 493e 4055 0d3e 976c 99be a8f1 103f
00000370: 594b e8be da28 093f 736c 2b3f 12ea 91be
00000380: 13bf 003f 8ff3 b73e 6e1f 483e e22b 603e
00000390: 52fb f83e b6c2 eebe ced9 c73c f706 0a3c
000003a0: 6750 d6be 0b61 b1be 73e5 e43e 5540 093f
000003b0: 47be 0f3f 72bf 0a3f aa76 293f 3b12 1d3f
000003c0: 78bf 393f 5591 2d3f f222 1d3e e15f 2d3e
000003d0: 2d38 8bbc cb3d 9abe 54c5 dd3e e20e ce3e
000003e0: f65f 1ebf 8f7e 8cbd 5d1d 29bd 7954 5dbe
000003f0: 5fd0 e83c 1a35 03be 63ec d7be 1c77 523e

l1.bias f4 [8]
0.8093272 0.43560237 0.7274725 0.94851 0.50067264 0.36323583 0.60614604 0.5956007
00000000: 1130 4f3f 4607 df3e a33b 3a3f 8dd1 723f
00000010: 152c 003f 0cfa b93e 632c 1b3f 4a79 183f

l2.weight f4 [8, 8]
0.44557425 -0.44559583 1.1141083 0.82901645 0.35991207 -0.28623065 -0.88356566 -0.86366785
0.8196483 -0.8057277 0.6752023 0.87008595 0.38529417 0.7295064 -0.8899676 0.8798511
-0.051862333 -0.0966385 0.42528665 0.27286342 -0.118014514 1.2343035 -0.5355404 0.01793112
0.6024201 1.1971222 -0.8088043 -0.16023327 1.301803 0.6121453 -0.11965389 1.8041017
0.76850766 0.3515972 0.9094852 -0.57819456 1.2234393 -0.6223999 1.43622 -1.0065603
1.1296742 -1.059819 0.24980839 1.1597942 -0.9964286 -0.96174663 1.264782 0.63236594
1.0281252 -0.29900935 0.69751954 -0.37147957 0.854292 0.10418264 -0.0066682855 0.17383622
-0.8598376 1.1860261 1.0499864 1.1874995 -0.5869586 0.83664626 0.3760733 -0.90508455
00000000: 4f22 e43e 2325 e4be 1a9b 8e3f 6c3a 543f
00000010: 6546 b83e d38c 92be 5c31 62bf 5619 5dbf
00000020: 79d4 513f 2c44 4ebf 0fda 2c3f f4bd 5e3f
00000030: 4745 c53e eec0 3a3f ebd4 63bf ec3d 613f
00000040: 996d 54bd 68ea c5bd 2cbf d93e c1b4 8b3e
00000050: 98b1 f1bd a8fd 9d3f 2d19 09bf 49e4 923c
00000060: 3438 1a3f 4d3b 993f cc0d 4fbf 3114 24be
00000070: 7ba1 a63f 8eb5 1c3f 190d f5bd ceec e63f
00000080: ebbc 443f 8c04 b43e 06d4 683f 8f04 14bf
00000090: a999 9c3f 9a55 1fbf 0fd6 b73f f8d6 80bf
000000a0: 2a99 903f 26a8 87bf c5cd 7f3e 2374 943f
000000b0: f215 7fbf 0735 76bf 60e4 a13f bce2 213f
000000c0: 9b99 833f c117 99be a490 323f 9232 bebe
000000d0: e1b2 5a3f b55d d53d a281 dabb 1f02 323e
000000e0: 511e 5cbf b4cf 973f f465 863f fcff 973f
000000f0: eb42 16bf 732e 563f ae8c c03e 9fb3 67bf

l2.bias f4 [8]
0.4359496 -0.16515781 -0.3354581 0.75634557 0.44388 0.40798992 -0.499025 0.29304227
00000000: c934 df3e 211f 29be 2ac1 abbe dd9f 413f
00000010: 3d44 e33e 0ee4 d03e 3480 ffbe a309 963e

l3.weight f4 [9, 8]
-1.0786419 -1.353299 -1.4629195 0.19550173 0.7970344 -1.4485927 0.17957063 -0.65369
-0.70847553 -0.7629001 -0.7083201 -0.9981867 0.72692657 0.54655844 0.027994199 -1.1694971
-0.029549368 0.4143274 -1.2739062 -0.0517879 -0.9444973 0.9184618 -0.2545266 -1.6707195
1.1036106 0.10294459 -1.2649447 -1.6102728 0.071594775 0.46349743 -0.6336668 0.24021043
0.8325755 0.17635499 -0.97770935 -0.49207243 0.290003 -1.0247887 0.6823972 -0.98753524
0.7918442 -0.08218384 0.43447176 -0.9698856 -1.2561437 -0.9718949 -1.3036267 0.5748454
-0.79493237 -1.4212024 -0.07967278 -0.60781187 0.17146786 -0.30153143 -0.96730417 0.85600525
-0.93148327 0.506327 0.7396497 -0.12015809 -1.0889568 -0.59192663 0.29478946 -0.34663096
-0.80939054 -0.30464742 -1.819806 0.9346534 -1.0047344 -0.9850048 -1.933146 -0.30921417
00000000: f010 8abf e738 adbf f240 bbbf 9b31 483e
00000010: 720a 4c3f 7c6b b9bf 5de1 373e 3a58 27bf
00000020: a75e 35bf 6c4d 43bf 7754 35bf 2a89 7fbf
00000030: dc17 3a3f 41eb 0b3f 1754 e53c 15b2 95bf
00000040: 8411 f2bc b922 d43e 5c0f a3bf 8d1f 54bd
00000050: 93ca 71bf 5020 6b3f 4f51 82be 23da d5bf
00000060: 1d43 8d3f 9dd4 d23d b5e9 a1bf 6b1d cebf
00000070: 48a0 923d 894f ed3e fd37 22bf b9f9 753e
00000080: ab23 553f 6796 343e 294b 7abf ebf0 fbbe
00000090: 467b 943e 472c 83bf 95b1 2e3f 1ccf 7cbf
000000a0: 4db6 4a3f 0050 a8bd 1573 de3e 6c4a 78bf
000000b0: 51c9 a0bf 1bce 78bf 3ddd a6bf 1129 133f
000000c0: b080 4bbf f6e9 b5bf 7c2b a3bd 8f99 1bbf
000000d0: 4595 2f3e 5462 9abe 3fa1 77bf 2923 5b3f
000000e0: b075 6ebf a59e 013f af59 3d3f 7215 f6bd
000000f0: f062 8bbf 8188 17bf a5ee 963e 9d79 b1be
00000100: 3834 4fbf bffa 9bbe 67ef e8bf 7245 6f3f
00000110: 239b 80bf 4629 7cbf 5471 f7bf 5251 9ebe

l3.bias f4 [9]
0.041505627 0.100039236 -0.14663911 -0.24402381 -0.48277184 0.010154551 0.1592952 -0.13578776
0.7453653
00000000: ce01 2a3d 5fe1 cc3d 9028 16be 61e1 79be
00000010: df2d f7be 465f 263c 481e 233e f20b 0bbe
00000020: 43d0 3e3f
